…
[2022-08-05 22:54:51,526: INFO: stage_02_base_model_creation]: >>>>> stage Base Model Creation started <<<<<
[2022-08-05 22:54:51,529: INFO: common]: yaml file: ../configs/config.yaml loaded successfully
[2022-08-05 22:54:51,529: INFO: stage_02_base_model_creation]: layers defined
[2022-08-05 22:55:02,650: INFO: stage_02_base_model_creation]: base model summary:
Model: "sequential"
_________________________________________________________________
 Layer (type)                Output Shape              Param #   
=================================================================
 conv2d (Conv2D)             (None, 178, 178, 32)      896       
                                                                 
 max_pooling2d (MaxPooling2D  (None, 89, 89, 32)       0         
 )                                                               
                                                                 
 conv2d_1 (Conv2D)           (None, 87, 87, 32)        9248      
                                                                 
 max_pooling2d_1 (MaxPooling  (None, 43, 43, 32)       0         
 2D)                                                             
                                                                 
 flatten (Flatten)           (None, 59168)             0         
                                                                 
 dense (Dense)               (None, 8)                 473352    
                                                                 
 dense_1 (Dense)             (None, 2)                 18        
                                                                 
=================================================================
Total params: 483,514
Trainable params: 483,514
Non-trainable params: 0
_________________________________________________________________

[2022-08-05 22:55:02,659: ERROR: stage_02_base_model_creation]: local variable 'path_to_model' referenced before assignment
…
